model/model.pt (torch, 877852 bytes, 74 tensors)

pos_embedding f4 [1, 17, 64]
0	0x3ff902dd	1.9453999
1	0x3fbff964	1.4997983
2	0x3f71a573	0.9439308
3	0xc0082ee4	-2.127862
4	0x3f2980f2	0.6621238
5	0xbf979f41	-1.1845475
6	0xbcbb688f	-0.022877006
7	0xbfc6d43d	-1.553352
8	0xbf4883c4	-0.7832606
9	0x3fd6bb8a	1.6775982
10	0xbed478f7	-0.4149854
11	0xbfb1b338	-1.3882818
12	0xbf352b1e	-0.70768917
13	0xbef468a9	-0.477361
14	0xbf3da9c5	-0.7408717
15	0x3f44fbe9	0.76946884
16	0x3fcf2b71	1.6185132
17	0xbe85b7de	-0.26116842
18	0xbeda03b6	-0.42580956
19	0x3ec2c1a8	0.38038373
20	0xbf4cdb1e	-0.80021846
21	0x3f91fc61	1.1405145
22	0x3f498eee	0.7873372
23	0x3fd0c6e1	1.6310693
24	0x3fa409ba	1.2815468
25	0x3faa1756	1.3288372
26	0x3f2691f2	0.65066445
27	0x3fabae5a	1.3412583
28	0xbe6bad5d	-0.23015352
29	0x3e15fddc	0.14647621
30	0xbe8adbce	-0.27120823
31	0x3f6cf2bd	0.9255789
32	0xbfb6e2c3	-1.4287952
33	0xbf5c8805	-0.8614505
34	0xbe720be8	-0.23637354
35	0x3fde6994	1.737597
36	0x3e9a7a19	0.30171278
37	0xbea02896	-0.31280965
38	0x3ea0bad9	0.31392553
39	0xbf31ab09	-0.69401604
40	0xbfcc6d56	-1.5970867
41	0x3f63f68f	0.89048094
42	0xbf749bed	-0.95550424
43	0xbf2c6bb1	-0.67351824
44	0xbfa8c8d4	-1.3186288
45	0x400a6e8b	2.162997
46	0xbfa18b49	-1.2620631
47	0xbec8e769	-0.39239052
48	0xbf75c72c	-0.9600704
49	0xbf34be5b	-0.7060296
50	0x3d9113f7	0.07083886
51	0x3f1abf1a	0.6044785
52	0xbee2efca	-0.4432357
53	0x3fa4edab	1.288503
54	0xbf3fbbc0	-0.7489586
55	0xbf4c145a	-0.79718554
56	0xbfc2c112	-1.521517
57	0xbce35b0f	-0.027753381
58	0x3ccc3da2	0.024931733
59	0x3f0e3b1c	0.55558944
60	0xbda1a2ff	-0.07892417
61	0x3fe7e60b	1.8117079
62	0xbf9fc233	-1.248114
63	0x3fb4ce6a	1.4125493
64	0x3fcc8f0a	1.5981152
65	0x3f8291cb	1.0200742
66	0x401170b5	2.272504
67	0x3f3a7681	0.7283707
68	0x3e9274d5	0.2860476
69	0xbe97a33f	-0.29616734
70	0xbf8298a5	-1.0202833
71	0x3fa9d875	1.3269182
72	0xbe5b3637	-0.214074
73	0x3f0ccf7c	0.55004096
74	0x3ccceaf8	0.025014386
75	0x3ea97d62	0.33103472
76	0x3f0bf539	0.54671055
77	0xbf39b807	-0.7254643
78	0xc01c99a0	-2.4468765
79	0xbf6fa25d	-0.9360712
80	0x3eba46af	0.36382052
81	0xbefd6cf8	-0.494972
82	0xbfc484f2	-1.5353072
83	0xbf07f93d	-0.5311468
84	0x3f1eade7	0.61984104
85	0x3f2d5bdb	0.67718285
86	0x3f9fdd15	1.2489344
87	0xbcbfaff3	-0.023399329
88	0x3f42b351	0.76054865
89	0xbf0fe91e	-0.56215084
90	0xbf844e91	-1.0336477
91	0x3ee95024	0.45568955
92	0xbfe8a6de	-1.8175924
93	0xbf37c621	-0.71786696
94	0x3fc71b1e	1.555515
95	0x3edc480d	0.4302372
96	0xc03bcbcc	-2.9343138
97	0x3f137693	0.57602805
98	0x3f60b0d0	0.87769794
99	0x3da0decd	0.07854996
100	0x3f57e44d	0.84332734
101	0x3f275d7e	0.6537703
102	0x3f816e32	1.0111754
103	0xbea03289	-0.31288555
104	0x3d787f60	0.06066835
105	0x3f3f9c5d	0.74847966
106	0x3ed48e8d	0.41515008
107	0x3edacaab	0.42732748
108	0x3e2485bb	0.16066639
109	0x3fb18b0d	1.387056
110	0x3d112c52	0.035442658
111	0xbed67bd7	-0.41891357
112	0xbfc4d25b	-1.5376695
113	0xbe9c7f83	-0.30566034
114	0xbef87b85	-0.48531738
115	0x3e9f642f	0.31131122
116	0x3f158c40	0.5841713
117	0x3d0b9369	0.03407613
118	0xbefb956a	-0.4913743
119	0x3eea17ea	0.4572137
120	0xbe084486	-0.1330739
121	0x3e983a9f	0.29732224
122	0x3dcfc313	0.10144629
123	0x3f6c1b76	0.922294
124	0x3fa6eab3	1.3040375
125	0xbd1b88fe	-0.037972443
126	0x3f17a0f3	0.59229964
127	0x3f0395c7	0.5140042
128	0x400ac705	2.1683972
129	0x3f747c4a	0.9550215
130	0xbfbabe8b	-1.4589399
131	0xbf8716cc	-1.0553832
132	0x3d35a88c	0.044350192
133	0x3fd2ca8a	1.646806
134	0x3f2b9bac	0.6703441
135	0x3f165fa1	0.5873967
136	0x3f8ebdc8	1.1151667
137	0x3de2fa7b	0.110829316
138	0xbff0ce70	-1.8813
139	0x3f830551	1.0235997
140	0xbed1c400	-0.4096985
141	0x3f7d39af	0.98916143
142	0xbf147ac2	-0.57999814
143	0x3f177b27	0.5917229
144	0xbf8bf300	-1.0933533
145	0x3f933ed6	1.1503551
146	0x3fe61677	1.7975606
147	0x3fc010c3	1.5005115
148	0x3e9f53f4	0.3111874
149	0xbd887ecb	-0.06664809
150	0xbf45dfee	-0.77294815
151	0x3d058048	0.03259304
152	0x3e79d6d0	0.2439835
153	0x3f60f5b9	0.87874943
154	0xbeee0752	-0.4648996
155	0x3fcd3f04	1.6034856
156	0xc0242902	-2.565003
157	0xbed16018	-0.40893626
158	0xbf9e7a9b	-1.2381166
159	0x3f645a23	0.8920004
160	0xbffcb016	-1.9741237
161	0x3e3bc211	0.18335749
162	0x3da7152f	0.08158337
163	0xbed73847	-0.42035124
164	0x3e2c04d6	0.1679872
165	0xbf30b80b	-0.6903083
166	0x3e87342b	0.26406989
167	0xbf81e1c9	-1.0147029
168	0xbfdf7fbf	-1.746086
169	0x3f8b420b	1.087953
170	0x3f9ed1c2	1.2407763
171	0x39acf9c5	0.0003299249
172	0xbfcc29d2	-1.5950263
173	0x3f3854e2	0.7200452
174	0x3f4fdba7	0.8119454
175	0x400ee96d	2.2329972
176	0x3e0564ad	0.13026686
177	0x3e2b5d1d	0.16734739
178	0xbf4bec63	-0.7965757
179	0xbd923fff	-0.071411125
180	0xbf6432ad	-0.89139825
181	0xbfec70c5	-1.8471915
182	0xbf8edd51	-1.116129
183	0xbf24bdfd	-0.643524
184	0xbf1e0b62	-0.6173612
185	0xbfbf9ed4	-1.4970345
186	0xbfec4004	-1.8457036
187	0x3d754200	0.059877396
188	0x3f8ca00b	1.0986341
189	0xbf39cc1f	-0.7257709
190	0x3f2ebbfb	0.68255585
191	0x3f449d35	0.7680238
192	0x400e05b3	2.2190979
193	0xbf7cfc9f	-0.9882297
194	0x3f5faed7	0.8737616
195	0xbf18c9aa	-0.59682715
196	0xbf901e41	-1.1259233
197	0x3dee4450	0.11634123
198	0x3f091a9b	0.5355622
199	0x3f93a02e	1.1533258
200	0x3edc223e	0.42994875
201	0x400fd502	2.247376
202	0xbf0261a5	-0.50930244
203	0xbf371e4b	-0.715306
204	0x3d549adc	0.051905498
205	0x3f87db47	1.0613793
206	0x3fa744ef	1.3067912
207	0x3eeaefdf	0.45886132
208	0xbf6ed223	-0.93289393
209	0xbf5a6cc2	-0.853222
210	0xbef22ce5	-0.47299877
211	0xbf482882	-0.7818681
212	0x3e20b003	0.15692143
213	0x3ec619e1	0.3869162
214	0xbe308118	-0.17236745
215	0xc0111f76	-2.2675452
216	0xbe8a75be	-0.27042955
217	0x3f711faa	0.9418894
218	0xbfd271e8	-1.6441011
219	0x3fc7a5ed	1.5597512
220	0x3e9ff793	0.31243572
221	0xbe90ec02	-0.2830506
222	0x3f95f311	1.1714803
223	0x3ff8cb70	1.9437084
224	0xbe87908f	-0.26477477
225	0x3fe1950a	1.7623608
226	0x3c9adf6d	0.018905366
227	0xbf99494f	-1.1975497
228	0xbf01c092	-0.50684464
229	0x3c63d75a	0.013906324
230	0x3f04f9b8	0.5194354
231	0x400eda97	2.2320917
232	0x3d5ee745	0.054419775
233	0xbf6f3706	-0.93443334
234	0xc006c34c	-2.10567
235	0xbf851d5c	-1.0399585
236	0xbe1ca6ff	-0.15298079
237	0x3e5e815c	0.21729034
238	0x3ea58cc6	0.32333964
239	0x3f007949	0.50185066
240	0xbf8e6bf2	-1.1126692
241	0x3e2aa3f4	0.16664106
242	0xbee7e285	-0.45290008
243	0x3eb3da5a	0.35127527
244	0xbf23b13a	-0.639423
245	0xbe37cd16	-0.17949328
246	0xbeae22b7	-0.3401086
247	0x3f9ede8d	1.2411667
248	0x3facf655	1.3512675
249	0xbf93f10b	-1.1557935
250	0x3f40c922	0.75306904
251	0x3eb92ead	0.36168423
252	0x3f445553	0.76692694
253	0x3f1ef1be	0.6208762
254	0x3efe2e33	0.49644622
255	0x3edb5f94	0.42846358

cls_token f4 [1, 1, 64]
0	0xbfae4375	-1.3614336
1	0xbe4a933d	-0.1978273
2	0x3f6f6439	0.935123
3	0x3e24b4c0	0.16084576
4	0x3ef9d252	0.48793274
5	0xbf751ddf	-0.95748705
6	0xbfa8d8d2	-1.3191168
7	0xbecc3e38	-0.3989122
8	0xbe43d45e	-0.1912398
9	0xbfca34d0	-1.5797367
10	0x3e21f2f9	0.15815343
11	0x3ff09411	1.8795186
12	0xbf97261e	-1.1808507
13	0x3c269a67	0.010168648
14	0x3e2ff5a9	0.17183556
15	0xbe11e4e3	-0.1424747
16	0xbef2e999	-0.47443846
17	0x3e51efe0	0.20501661
18	0x3f86bdd2	1.0526679
19	0xbf195d5b	-0.59908074
20	0xbeece287	-0.46266577
21	0x3ef038ea	0.46918422
22	0xbeaa45de	-0.3325643
23	0x3f55470d	0.8331154
24	0x3f2ac399	0.6670471
25	0xc00a25b2	-2.1585507
26	0x3f064fc4	0.5246546
27	0x3f31e31f	0.69487184
28	0x3fd2acc3	1.6458973
29	0x3bf4646d	0.0074582607
30	0xbf7e0176	-0.9922098
31	0x3f789817	0.9710707
32	0xbf73c460	-0.9522152
33	0x3f95a1a5	1.1689955
34	0xbfbd7c9c	-1.4803653
35	0x3fdea298	1.739337
36	0xbec4db6b	-0.38448653
37	0x401e08c1	2.4692843
38	0xbee72d4d	-0.4515175
39	0x3cb3b3ad	0.021936262
40	0xbfa404fb	-1.281402
41	0xbe03e1a5	-0.12879045
42	0xc007976e	-2.1186175
43	0x3df1febf	0.11816167
44	0x3f07fe0f	0.5312204
45	0xbef48047	-0.47754118
46	0x3f646d9d	0.89229757
47	0x3f8a755c	1.0817065
48	0x3c2f7b4a	0.010710547
49	0x3de32dcc	0.110927194
50	0x3f24d788	0.64391375
51	0x3dca3460	0.09873271
52	0x3f6482e6	0.89262235
53	0x400b0789	2.172335
54	0xbea1b77d	-0.31585303
55	0xbf80ebb4	-1.0071931
56	0xbf13ca6b	-0.5773074
57	0xbf420be3	-0.7579939
58	0x3ec6ea74	0.3885075
59	0xbfc143d0	-1.509882
60	0x3fa8b14e	1.3179109
61	0xbfeb1f4b	-1.8368925
62	0x3fe3152f	1.774084
63	0xbf31621b	-0.6929032

patch_to_embedding.weight f4 [64, 49]
0	0xbe763041	-0.24041845
1	0xbe7ad94c	-0.24496955
2	0x3b867e48	0.0041044094
3	0x3d6a19a4	0.05715336
4	0xbe404c34	-0.18779069
5	0x3e38c1c3	0.18042664
6	0x3e87b11a	0.26502305
7	0x3c7ed59a	0.015553856
8	0x3d5759f9	0.05257604
9	0x3e8b2f83	0.27184686
10	0x3e1f337b	0.15546982
11	0x3e744e60	0.23858023
12	0x3d2332be	0.039843313
13	0x3da95f60	0.082701445
14	0xbe36db7a	-0.17857161
15	0x3e7f18d0	0.24911809
16	0x3e32d7dc	0.17465156
17	0x3ec0634e	0.37575763
18	0x3e6982f4	0.22803861
19	0x3ddd6085	0.10809425
20	0xbdb17c68	-0.08666307
21	0xbccdb6da	-0.025111604
22	0x3d95a932	0.07307662
23	0x3b745d09	0.0037286899
24	0x3dbd3185	0.09237961
25	0x3db26b3b	0.08711859
26	0x3cb0433a	0.021516431
27	0xbd82924e	-0.06375562
28	0xbdc4cdab	-0.096095406
29	0x3e09d3ba	0.13459674
30	0x3ca24917	0.019810243
31	0x3d0f29b0	0.034951866
32	0xbe51110f	-0.20416664
33	0xbe0c314d	-0.13690682
34	0xbe078c06	-0.13237008
35	0xbe132425	-0.14369257
36	0x3c119740	0.0088861585
37	0xbdfd43a1	-0.12366415
38	0x3cae61c5	0.021286855
39	0x3d550034	0.052002147
40	0x3dbd9b98	0.09258193
41	0x3d1a500c	0.037673995
42	0xbe948016	-0.29003972
43	0xbdc9ad64	-0.09847525
44	0xbd98a020	-0.074524164
45	0xbe38f36c	-0.18061608
46	0x3cad5373	0.021157956
47	0x3c2a115b	0.010380114
48	0x3dd94246	0.10608344
49	0x3e96aae5	0.29427257
50	0xbd1a5025	-0.037674088
51	0xbd64d9d4	-0.0558718
52	0xbc23a0b5	-0.009987046
53	0xbe35d98f	-0.17758773
54	0xbdbd39fe	-0.09239577
55	0xbe818353	-0.25295505
56	0x3c9fb8c6	0.019497287
57	0xbe08095a	-0.13284817
58	0xbe6c966b	-0.23104255
59	0xbe4fa90a	-0.20279327
60	0xbbad9931	-0.005297803
61	0x3ce37839	0.027767288
62	0x3d83b734	0.064314276
63	0x3e07b309	0.1325189
64	0x3d9609c2	0.0732608
65	0xbe32e45d	-0.17469926
66	0xbe5b1f64	-0.21398693
67	0x3c8b918e	0.01703718
68	0x3dd56394	0.10419384
69	0x3d599174	0.05311723
70	0xbd238f00	-0.039931297
71	0x3e3f302d	0.18670721
72	0x3d5055f6	0.05086323
73	0x3e2a356a	0.16621938
74	0x3e97e61e	0.29667753
75	0x3d84003a	0.06445356
76	0xbe40c7be	-0.18826196
77	0x3e494edb	0.19658987
78	0x3d19e111	0.037568156
79	0x3e0e7a80	0.13913918
80	0x3d8ff22f	0.07028615
81	0x3d476993	0.048684668
82	0xbcf8b51e	-0.0303598
83	0x3d616535	0.05502816
84	0x3c3d60b5	0.011558701
85	0x3da71dba	0.08159967
86	0x3e05792e	0.13034508
87	0x3dd19bac	0.1023477
88	0x3d730eb6	0.0593402
89	0xbd8fe456	-0.070259735
90	0x3e288432	0.16456679
91	0xbe144d75	-0.14482673
92	0xbd8dadfd	-0.06917951
93	0xbe346a5f	-0.17618702
94	0xbe904fde	-0.28185934
95	0xbe140443	-0.1445475
96	0xbb969444	-0.0045953114
97	0x3d8b1958	0.06791943
98	0xbe3ee0df	-0.18640469
99	0xbd0b7788	-0.03404954
100	0x3def41c2	0.11682464
101	0x3e5ed818	0.2176212
102	0x3d4b5ac8	0.049647123
103	0x3de31110	0.11087239
104	0x3dc68ed6	0.096952125
105	0xbe8951cb	-0.26820216
106	0xbe69eb9e	-0.22843787
107	0xbe4e45bb	-0.20143788
108	0xbe6774d4	-0.2260316
109	0xbdd1b031	-0.10238684
110	0xbd957463	-0.0729759
111	0xbdbe6739	-0.09297032
112	0xbe71985d	-0.23593278
113	0xbe10acb9	-0.14128388
114	0xbe2aaca9	-0.16667427
115	0x3da2d913	0.0795156
116	0xbe094980	-0.13406944
117	0xbdf7456f	-0.1207379
118	0xbd40ba3f	-0.047052618
119	0xbd99db8a	-0.07512577
120	0x3e198800	0.14993286
121	0x3dfccad7	0.12343376
122	0x3e8111cd	0.25208893
123	0xbc2f0730	-0.010682866
124	0x3e19721b	0.14984934
125	0xbd565b0c	-0.052332923
126	0xbbbed990	-0.0058242753
127	0x3e8167b3	0.2527443
128	0x3e6c6123	0.2308393
129	0x3e513b60	0.20432806
130	0x3e7af663	0.24508052
131	0x3d5ad96f	0.053430017
132	0xbe96b4b0	-0.2943473
133	0x3e10a199	0.14124145
134	0x3e255987	0.16147433
135	0x3e222b04	0.15836722
136	0x3e78cbd9	0.24296512
137	0xbd82558e	-0.063639745
138	0x3d1b69aa	0.037942566
139	0x3dbe1ed3	0.09283223
140	0xbc368dda	-0.0111422185
141	0xbe2f7a64	-0.17136532
142	0x3cb6585b	0.022258928
143	0xbe0f5cc5	-0.14000233
144	0xbd0392c2	-0.03212238
145	0x3d803252	0.06259598
146	0x3e724f4a	0.23663059
147	0xbea73f91	-0.32665685
148	0xbcf6664c	-0.030078076
149	0xba84172f	-0.001007771
150	0x3c76d96c	0.015066486
151	0x3dcc44e1	0.09974075
152	0x3d2e2a04	0.042520538
153	0x3dfe8928	0.12428504
154	0xbe3d14f0	-0.18465018
155	0xbce28077	-0.027649147
156	0x3e264a97	0.16239391
157	0x3cd40485	0.025881061
158	0xbdffae50	-0.12484419
159	0x3d75ce9b	0.060011487
160	0xbdc237bb	-0.09483286
161	0xbe11bef8	-0.14233005
162	0xbdb7b0af	-0.089692466
163	0xbe201c05	-0.15635689
164	0xbcc7a43f	-0.02437031
165	0xbda0aeec	-0.07845864
166	0xbe394dd1	-0.18096091
167	0x3c048b76	0.008089891
168	0xbdf4727b	-0.11935898
169	0x3ce98f89	0.028510826
170	0xbda6f4cd	-0.08152161
171	0xbe1f8287	-0.15577136
172	0xbdccafc5	-0.09994463
173	0xbc5eaff8	-0.013591759
174	0xbe83b127	-0.25721094
175	0xbe43e50b	-0.19130342
176	0x3d175fb7	0.036956515
177	0x3da22dd5	0.07918898
178	0xbdf5df91	-0.120055325
179	0x3c8a6566	0.016894054
180	0xbce69195	-0.02814559
181	0xbe74c3db	-0.23902838
182	0x3c89850c	0.016787075
183	0x3d93e6ce	0.07221757
184	0xbdad23a7	-0.08454066
185	0x3d1d7507	0.038441684
186	0xbe2710c3	-0.16314988
187	0x3e20c4cb	0.1570007
188	0x3e35523a	0.17707148
189	0xbcb869f4	-0.02251146
190	0xbc4edc24	-0.012625728
191	0xbd1b1c74	-0.037868932
192	0xbdd6e2c1	-0.104924686
193	0xbccfb1dd	-0.025353367
194	0x3c5f5df8	0.013633244
195	0xbe65e4c1	-0.22450544
196	0x3de73904	0.11290172
197	0x3e6b9ba1	0.23008586
198	0x3dfd215e	0.1235988
199	0xbd8a9ab5	-0.06767789
200	0x3d6ad66d	0.0573334
201	0x3d947814	0.072494656
202	0x3e880f79	0.26574305
203	0x3e8a9570	0.27067137
204	0x3e8970c0	0.26843834
205	0x3de9df1c	0.11419508
206	0x3e4fcdc7	0.20293342
207	0x3e2cebc3	0.16886811
208	0xbdadcc35	-0.08486215
209	0xbe1720df	-0.14758633
210	0x3cf1cf27	0.029517723
211	0x3e29c6c8	0.16579735
212	0x3ce7508a	0.028236646
213	0xbbd54d91	-0.006509491
214	0x3c83223b	0.016007533
215	0xbd61be2a	-0.055112995
216	0xbe811ce4	-0.25217354
217	0x3dc8983d	0.09794662
218	0x3e62968d	0.22127743
219	0xbd92cef3	-0.07168379
220	0xbe413d1c	-0.18870968
221	0xbe4248d2	-0.18973091
222	0xbe3cd5a4	-0.18440872
223	0xbdd38d41	-0.103296764
224	0x3df4f475	0.11960689
225	0x3c7b0dfe	0.01532316
226	0x3db6583a	0.08903547
227	0xbdb93ac7	-0.09044414
228	0xbe2950f9	-0.16534795
229	0xbdd4e671	-0.10395516
230	0xbe611882	-0.21982005
231	0x3e216251	0.15760161
232	0xbd6f0466	-0.058353804
233	0xbcee0654	-0.029055752
234	0xbcaa18a2	-0.020763699
235	0xbd1db7ac	-0.03850524
236	0xbe05fd4d	-0.13084908
237	0xbdcd4d07	-0.100244574
238	0x3e8a7423	0.2704173
239	0x3e870aa7	0.26375315
240	0xbdb01727	-0.08598166
241	0x3e1855d1	0.14876486
242	0xbd7cff74	-0.061767057
243	0xbcf3f891	-0.029781612
244	0x3e103945	0.14084347
245	0x3d1df2d4	0.038561657
246	0xbd55d68f	-0.052206572
247	0x3e502b91	0.2032912
248	0x3e8f9a2d	0.28047314
249	0x3e5eccba	0.21757784
250	0x3e82951d	0.2550439
251	0x3d3a6d48	0.045514375
252	0xbe5f28de	-0.21792933
253	0xbdf2765e	-0.11838983
254	0x3d27bac9	0.040949617
255	0x3dcc46a4	0.09974411

patch_to_embedding.bias f4 [64]
0	0xbdc7cf0a	-0.097562864
1	0xbdb9ae3f	-0.09066438
2	0x3e1369e6	0.14395866
3	0x3c9f63ad	0.019456709
4	0x3d1bf80d	0.038078357
5	0xbdd148e9	-0.10218985
6	0x3dff3bf1	0.12462605
7	0xbe12acb7	-0.14323698
8	0x3d51899c	0.051156625
9	0xba6e2b73	-0.0009085454
10	0x3de99956	0.114062
11	0xbc4757f2	-0.012166964
12	0xbdda69a3	-0.1066468
13	0xbd36a2fd	-0.04458903
14	0x3d8ee3d5	0.06977049
15	0xbdf2c1dc	-0.11853382
16	0x3de08ec8	0.10964733
17	0xbd0c262e	-0.0342161
18	0xbd6e7e74	-0.058226064
19	0x3dc8470f	0.09779178
20	0x3ce794f3	0.028269267
21	0xbde5277b	-0.11189171
22	0x3e18f4ee	0.14937183
23	0xbded5048	-0.11587578
24	0x3dea42b1	0.114385016
25	0xbd9f5f92	-0.077819005
26	0x3e0d6af2	0.13810328
27	0xbba797b8	-0.005114522
28	0x3bbd7138	0.005781319
29	0x3cc61faf	0.02418503
30	0x3d20fbc1	0.03930259
31	0xbd96dabd	-0.0736594
32	0x3ca02ca4	0.019552536
33	0x3e66a2ed	0.22523089
34	0xbd8120d8	-0.063050926
35	0x3e1d01db	0.15332739
36	0xbcdd8d82	-0.027045015
37	0xbd4c7439	-0.049915526
38	0xbdb17e05	-0.086666144
39	0x3e2364c5	0.1595641
40	0x39ccb85e	0.00039047276
41	0x3d5657b7	0.052329745
42	0xbddf08a1	-0.10890318
43	0x3d07fe0d	0.033201266
44	0xbdfba51e	-0.12287353
45	0x3d1be7c5	0.03806283
46	0x3db65136	0.089022085
47	0x3d10f546	0.03539016
48	0xbd7d1fca	-0.061797895
49	0xbe28a6a6	-0.16469821
50	0xbda42c5f	-0.080162756
51	0xbe561293	-0.20905523
52	0x3e12eb93	0.14347677
53	0xbd471012	-0.04859931
54	0x3de4c045	0.11169485
55	0x3dd2ad1a	0.10286923
56	0xbcd1d564	-0.025614448
57	0xbde96b5b	-0.113974296
58	0xbc27dca5	-0.010245477
59	0xbd3d96e3	-0.046286475
60	0x3e179420	0.14802599
61	0xbd2e2b97	-0.04252204
62	0xbd9f726d	-0.07785497
63	0x3e56c71e	0.20974395

transformer.layers.0.0.fn.norm.weight f4 [64]
0	0x3f4dea0a	0.8043524
1	0x3f416b0b	0.7555396
2	0x3f6f345f	0.93439287
3	0x3f0d20e0	0.5512829
4	0x3f82312a	1.0171254
5	0x3f401e04	0.750458
6	0x3f3e54c7	0.7434811
7	0x3f513b49	0.81731087
8	0x3f401f0f	0.7504739
9	0x3f82edad	1.0228783
10	0x3f3cc87b	0.7374341
11	0x3f2ea85b	0.6822564
12	0x3f4bf58c	0.7967155
13	0x3f53be0e	0.82711875
14	0x3f3489f2	0.7052299
15	0x3f292da0	0.66085243
16	0x3f170de5	0.59005576
17	0x3f3e06ca	0.7422911
18	0x3f3076fd	0.6893156
19	0x3f71669d	0.942972
20	0x3f48460d	0.7823189
21	0x3f411224	0.75418305
22	0x3f48555b	0.7825524
23	0x3f29bc10	0.66302586
24	0x3f749b4c	0.95549464
25	0x3f4f34fd	0.8094023
26	0x3f55ad48	0.8346753
27	0x3f2abfe6	0.66699064
28	0x3f3fd3fb	0.7493283
29	0x3f62728a	0.8845602
30	0x3f5b91cf	0.8576936
31	0x3f73a349	0.9517103
32	0x3f41d928	0.7572198
33	0x3f493d5e	0.78609264
34	0x3f20bb9b	0.62786263
35	0x3f787d9d	0.9706667
36	0x3f67f47e	0.9060744
37	0x3f37811b	0.71681374
38	0x3f61fb44	0.88274026
39	0x3f7582da	0.9590279
40	0x3f57dd46	0.8432201
41	0x3f37bfac	0.71776843
42	0x3f56ef05	0.83958465
43	0x3f49e38c	0.78862834
44	0x3f633ef4	0.88767934
45	0x3f42b590	0.7605829
46	0x3f201de6	0.6254562
47	0x3f1dca00	0.6163635
48	0x3f3e7432	0.7439605
49	0x3f544c8d	0.8292931
50	0x3f4801aa	0.7812754
51	0x3f50453e	0.81355655
52	0x3f6e307a	0.9304272
53	0x3f2b29d1	0.6686068
54	0x3f57669d	0.8414095
55	0x3f258956	0.64662683
56	0x3f55331d	0.8328112
57	0x3f4a1532	0.7893859
58	0x3f5b5cd8	0.85688543
59	0x3f80653d	1.0030895
60	0x3f2e0976	0.67983186
61	0x3f2d34cf	0.67658705
62	0x3f214df6	0.63009584
63	0x3f02e9ff	0.511383

transformer.layers.0.0.fn.norm.bias f4 [64]
0	0x3d2e877a	0.04260967
1	0x3dc405af	0.095713966
2	0x3c587527	0.013211525
3	0x3c2a2c89	0.010386595
4	0x3daccfd7	0.0843808
5	0x3df8ac07	0.121421866
6	0x3cca2929	0.02467783
7	0xbc22181a	-0.009893442
8	0x3d35f8f4	0.044426873
9	0xbc666b67	-0.014063693
10	0x3e23f0c5	0.16009815
11	0xbda6b818	-0.08140582
12	0x3e26162a	0.16219392
13	0xbcdeb5ea	-0.027186353
14	0x3df507cb	0.11964377
15	0x3c4447de	0.011980025
16	0xbdd6b797	-0.10484236
17	0x3e0d44fe	0.1379585
18	0xbd939b01	-0.07207299
19	0x3bf332aa	0.007421811
20	0xbbd4e433	-0.00649693
21	0x3d5f69d3	0.05454428
22	0xbdc6ed1f	-0.09713196
23	0x3c99a75a	0.018756557
24	0xbcc43d8e	-0.023955133
25	0xbd25fb2b	-0.040522736
26	0xbdc824a1	-0.097726114
27	0xbdf8ac52	-0.121422425
28	0xbe073ae2	-0.13206056
29	0xbd92a31b	-0.07160016
30	0xbd48f829	-0.04906479
31	0x3c82fe29	0.015990334
32	0xbc9fe26e	-0.01951715
33	0x3d503b2a	0.050837673
34	0x3d06ff06	0.032958053
35	0x3cce7cc3	0.025205975
36	0x3d032014	0.032013014
37	0x3d3304ec	0.043705866
38	0x3d193189	0.037400756
39	0xbbe93616	-0.0071170432
40	0x3d8b59ca	0.06804235
41	0x3cd243e5	0.02566714
42	0x3d90898f	0.07057487
43	0x3da1a4ac	0.07892737
44	0x3a617ad8	0.0008601374
45	0xbd80631c	-0.062689036
46	0x3cf18dd9	0.029486584
47	0xbe151824	-0.1455999
48	0x3d7d7d82	0.06188727
49	0xbc415bd8	-0.011801682
50	0x3c53c3d8	0.012925111
51	0xbde238a7	-0.11045962
52	0xbc7c9ee7	-0.015418745
53	0x3cec8ed9	0.028876709
54	0x3d54bb18	0.05193624
55	0xbde60ff6	-0.11233513
56	0xbb871808	-0.004122738
57	0x3e324e85	0.17412765
58	0xbde91b14	-0.11382118
59	0x3d961ada	0.0732934
60	0xbcbd7cef	-0.023130862
61	0xbdc782f0	-0.09741771
62	0xbd8abf67	-0.06774788
63	0xbe00d3b1	-0.12580754

transformer.layers.0.0.fn.fn.to_qkv.weight f4 [192, 64]
0	0xbda7777d	-0.081770875
1	0x3db79eb3	0.08965816
2	0x3cb6ae63	0.022299951
3	0xbe74714a	-0.23871341
4	0x3ea17f77	0.3154256
5	0xbe851131	-0.25989679
6	0xbe8ab929	-0.2709439
7	0xbea0a13e	-0.31373018
8	0xbd895a37	-0.0670666
9	0xbe988ed1	-0.2979646
10	0x3d4c24ad	0.049839664
11	0x3dfd5af3	0.12370863
12	0xbdcbc5d8	-0.09949845
13	0xbe783057	-0.2423719
14	0x3d609c98	0.05483684
15	0x3daa2187	0.08307176
16	0x3d81f045	0.06344656
17	0xbe1909eb	-0.1494519
18	0xbd93106a	-0.07180865
19	0xbe6bf65e	-0.230432
20	0xbd983735	-0.07432405
21	0x3de66978	0.11250585
22	0xbd91fb2e	-0.07127987
23	0x3e8a6e2f	0.27037188
24	0x3eae3e93	0.34032115
25	0xbe75f659	-0.24019755
26	0x3c0141e0	0.007889241
27	0xbdaaf634	-0.08347741
28	0x3cf30d66	0.029669475
29	0x3d9c86aa	0.07642873
30	0xbe42d081	-0.1902485
31	0x3cab2224	0.020890303
32	0x3e0984c3	0.13429551
33	0xbd9d31bd	-0.076755024
34	0xbd1b032d	-0.037844826
35	0x3d866668	0.06562501
36	0xbd85fbdd	-0.0654218
37	0x3e58ab3d	0.21159072
38	0xbdc01b62	-0.09380223
39	0xbe4bc126	-0.19897899
40	0x3c0a35f8	0.008435719
41	0xbd714068	-0.058899313
42	0xbbff1b75	-0.0077852556
43	0xbc2c5621	-0.010518582
44	0x3dfa174d	0.122114755
45	0x3d3b09e8	0.045663744
46	0xbe1eb454	-0.15498477
47	0xbbd9291f	-0.0066272165
48	0xbe5e8aea	-0.21732679
49	0x3c8942b2	0.016755436
50	0x3e586c66	0.211351
51	0x3dfa63ad	0.12226043
52	0x3d6a95e2	0.057271846
53	0x3e5c8458	0.2153486
54	0xbb8337be	-0.0040044477
55	0x3e265a88	0.16245472
56	0xbc1eb3fc	-0.009686466
57	0x3dcf55df	0.101238005
58	0xbe1644d6	-0.14674696
59	0xbe986756	-0.2976634
60	0x3dad4131	0.084597
61	0x3dec8b0a	0.11549957
62	0x3e34137d	0.17585559
63	0xbd5c0062	-0.053711303
64	0x3eccbb8a	0.3998683
65	0xbe769b84	-0.24082762
66	0xbd5f43ef	-0.054508146
67	0x3d6d5f0d	0.057951976
68	0x3e3d09cc	0.18460768
69	0xbe6a095d	-0.22855134
70	0xbe6aa709	-0.22915281
71	0x3db2ebb1	0.08736361
72	0xbde2d18d	-0.11075125
73	0xbf092d19	-0.5358444
74	0x3e1bceda	0.15215626
75	0xbdc38003	-0.09545901
76	0xbc243956	-0.010023436
77	0xbeacceb0	-0.3375144
78	0xbe27f4a6	-0.1640192
79	0x3e556fe0	0.20843458
80	0x3d35eb41	0.04441381
81	0xbd0dc016	-0.034607016
82	0xbed4d346	-0.4156744
83	0x3e81769a	0.25285798
84	0x3eb4c420	0.35305882
85	0xbe100775	-0.14065345
86	0x3ca56728	0.02019079
87	0x3dd2fd8f	0.10302269
88	0x3e5182ee	0.20460102
89	0xbed3d80e	-0.41375774
90	0x3d5653ac	0.05232589
91	0x3e075fef	0.1322019
92	0x3df0754a	0.11741121
93	0xbd001618	-0.03127107
94	0x3e34a4d1	0.17640997
95	0x3ed0e39b	0.4079865
96	0xbe1dc682	-0.15407756
97	0x3daecfac	0.08535704
98	0xbea57561	-0.32316115
99	0x3e632b0c	0.2218439
100	0xbe11f416	-0.14253268
101	0xbe94519e	-0.2896852
102	0xbe739930	-0.23788905
103	0xbeef7ea7	-0.46776316
104	0xbd0d4fc1	-0.034499887
105	0xbc3fde40	-0.011710703
106	0xbd09473b	-0.033515196
107	0x3e3eb7ee	0.18624851
108	0xbd21dd79	-0.039517853
109	0xbe50414f	-0.20337413
110	0xbe75d686	-0.24007615
111	0x3d0b765e	0.03404843
112	0xbe90d871	-0.28290132
113	0x3e8c0f70	0.27355528
114	0x3d12f5d8	0.035878986
115	0x3d522533	0.051305007
116	0x3ecd8690	0.40141726
117	0x3c886e76	0.016654234
118	0x3e701335	0.23444827
119	0xbdd95eec	-0.10613808
120	0xbd397e13	-0.04528625
121	0xbe7e2161	-0.2481742
122	0xbc93789a	-0.018001843
123	0xbe858a2d	-0.26081982
124	0x3dc3ec77	0.095665865
125	0xbdf0223e	-0.11725281
126	0xbe263e8a	-0.16234794
127	0xbd8cb235	-0.06869928
128	0x3e0a5d4a	0.1351215
129	0x3e6cce53	0.23125581
130	0x3e06089a	0.13089219
131	0x3e27ab0f	0.16373847
132	0xbd90d001	-0.070709236
133	0x3d0de068	0.03463784
134	0x3ba77add	0.005111082
135	0xbb1ed7b0	-0.0024237446
136	0xbaf4a7cd	-0.0018665731
137	0x3dbfe95f	0.09370684
138	0xbe42347c	-0.18965334
139	0x3df67b24	0.12035206
140	0xbe044111	-0.12915446
141	0xbe10f3b3	-0.14155464
142	0x3da678bb	0.08128496
143	0x3c8b5113	0.017006433
144	0x3c988264	0.018616863
145	0xbe76723e	-0.24067017
146	0xba1f2470	-0.0006070798
147	0x3e0f81f0	0.14014411
148	0xbea00463	-0.31253347
149	0x3de1340a	0.10996254
150	0x3e7c99e1	0.24668075
151	0x3db52356	0.088446304
152	0x3d772615	0.060339052
153	0xbd862356	-0.065497085
154	0xbce629b3	-0.028096056
155	0x3ea3638e	0.31911892
156	0xbe640af0	-0.22269797
157	0xbe2c4933	-0.16824798
158	0xbe8e48e4	-0.27789986
159	0x3e7a8801	0.24465944
160	0xbd9b0fb8	-0.075713575
161	0xbe21ef0a	-0.15813842
162	0xbe04423a	-0.12915888
163	0xbb105b61	-0.0022027122
164	0xbe111d31	-0.14171292
165	0x3cd3883f	0.025821803
166	0x3d23b3fd	0.039966572
167	0xbcf6b410	-0.030115157
168	0xbe501909	-0.2032205
169	0xbd728791	-0.059211317
170	0xbe413844	-0.1886912
171	0xbe6592d1	-0.22419287
172	0xbd81f2f7	-0.0634517
173	0x3d464827	0.048408654
174	0xbddf9fb6	-0.10919134
175	0x3db4ef6a	0.08834727
176	0x3d416c41	0.04722238
177	0x3d1fea6c	0.03904192
178	0x3e2e2870	0.17007613
179	0x3c42cb83	0.011889341
180	0xbeb2e5f6	-0.3494107
181	0x3e7af6e9	0.24508251
182	0xbd59e4e5	-0.053196806
183	0x3c8a9215	0.01691536
184	0xbd3c1b40	-0.045924425
185	0x3c441bd8	0.011969529
186	0xbe768dde	-0.24077556
187	0xbe53b6ee	-0.20675251
188	0x3e03e7ce	0.12881395
189	0xbbcf783c	-0.0063314717
190	0x3d7e54dd	0.06209265
191	0xbe1039c6	-0.14084539
192	0x3e41d2da	0.1892809
193	0xbc9939b9	-0.018704282
194	0x3e70a1ce	0.23499224
195	0xbe2fa5ad	-0.17153044
196	0x3e90aa59	0.28254965
197	0xbe420e73	-0.18950824
198	0xbe3e7465	-0.18599088
199	0xbe516b3f	-0.20451067
200	0xbd4514fd	-0.04811572
201	0xbe6deb08	-0.23234189
202	0x3da1e0f7	0.07904237
203	0x3e2d39a5	0.16916521
204	0x3d31cbf7	0.043407407
205	0xbe812fd8	-0.25231814
206	0xbe289949	-0.16464724
207	0x3d6e44cf	0.05817109
208	0xbb9e8b3e	-0.0048383763
209	0xbc33589a	-0.010946417
210	0xbe4edfac	-0.20202512
211	0xbdb0afc5	-0.086272754
212	0x3eb1becf	0.34715888
213	0x3dd17848	0.1022802
214	0x3d94967b	0.07255264
215	0x3bdd99d5	0.006762723
216	0x3ec1e052	0.37866455
217	0xbf00d0b8	-0.5031848
218	0x3e354077	0.17700373
219	0x3e048e05	0.12944801
220	0x3e2b6bf0	0.16740394
221	0x3d59825f	0.053102847
222	0x3daf733b	0.085669
223	0x3da40a63	0.080097936
224	0xbd76193c	-0.06008266
225	0x3db419e9	0.087940045
226	0xbe38a8ad	-0.18033095
227	0x3d6f2b78	0.058391064
228	0xbe29c132	-0.16577604
229	0x3df12d64	0.11776236
230	0xbc8f67a0	-0.017505467
231	0xbe5c8849	-0.21536364
232	0x3dc817e6	0.09770183
233	0xbdadb1e0	-0.084811926
234	0xbe9cccab	-0.306249
235	0x3cbfdd00	0.02342081
236	0xbd9c45be	-0.0763049
237	0xbe0012bc	-0.12507147
238	0xbe22c531	-0.15895535
239	0xbc0056fe	-0.007833241
240	0xbea9dabf	-0.33174703
241	0xbe14d3f9	-0.14533986
242	0xbd9ce06a	-0.07659991
243	0x3d6f11ea	0.058366694
244	0x3e82ee9d	0.25572672
245	0x3e1f5337	0.15559088
246	0xbd6e7331	-0.058215324
247	0x3ddd675e	0.10810731
248	0x3a886f50	0.001040915
249	0xbea3460e	-0.31889385
250	0x3e0f1334	0.13972169
251	0xbc6c93e8	-0.0144395605
252	0x3e2b938f	0.16755508
253	0x3dd9bb76	0.106314585
254	0xbe025dab	-0.12731044
255	0xbd3d90b0	-0.046280563

transformer.layers.0.0.fn.fn.to_out.weight f4 [64, 64]
0	0x3cf387a7	0.02972777
1	0xbd412331	-0.0471527
2	0xbda67230	-0.08127248
3	0x3c7bb749	0.015363523
4	0x3dbff828	0.09373504
5	0xbcd2e403	-0.02574349
6	0xbdbc3ddb	-0.091914855
7	0xbdfb1011	-0.12258924
8	0x3e2678c5	0.16257007
9	0x3e4621ae	0.19348785
10	0xbd121189	-0.035661254
11	0xbc9bce83	-0.01901937
12	0xbd6112ec	-0.054949686
13	0xbdcc389a	-0.099717334
14	0xbe7260e9	-0.23669781
15	0xbebcc17f	-0.36866376
16	0xbdef4772	-0.11683549
17	0x3cfab923	0.030605858
18	0x3da7757a	0.08176704
19	0xbdb5361d	-0.08848212
20	0xbd9b35bb	-0.07578608
21	0x3bb046be	0.005379527
22	0x3cc3d15c	0.023903541
23	0xbdb58a97	-0.088643245
24	0x3cca97bd	0.024730558
25	0xbe602ece	-0.21892855
26	0xbc43ccff	-0.01195073
27	0x3dae45c4	0.085094005
28	0xbdc8d933	-0.098070525
29	0x3d17524a	0.03694371
30	0xbc4aa0ab	-0.012367408
31	0x3e1fb59a	0.15596619
32	0x3e640f76	0.22271523
33	0xbcd0f65e	-0.025508102
34	0x3c5d6e35	0.013515045
35	0x3e420086	0.18945512
36	0xbd400606	-0.046880744
37	0xbcbb5769	-0.022868829
38	0x3ea0e4e1	0.3142462
39	0xbd9e74a4	-0.07737091
40	0xbc5b6e16	-0.013392946
41	0x3d56a0ea	0.052399553
42	0x3def6c52	0.11690582
43	0x3e139c4c	0.14415091
44	0xbe07b1fe	-0.13251492
45	0x3caaf0d1	0.020866783
46	0x3d18ec2d	0.03733461
47	0xbd9532ca	-0.07285078
48	0x3d5fc2b1	0.05462903
49	0x3d27664a	0.040869035
50	0x3e1b75e9	0.15181698
51	0xbd92cd66	-0.07168083
52	0x3e962af8	0.29329658
53	0xbe7091cd	-0.23493119
54	0xbcbe9e3f	-0.023268817
55	0xbda63d85	-0.08117203
56	0x3e3f0eaa	0.18657938
57	0xbe47be99	-0.19506301
58	0x3e0d0d43	0.1377459
59	0x3de0923f	0.10965394
60	0x3e2c1293	0.1680396
61	0xbceaed0f	-0.028677491
62	0x3e535dc7	0.20641242
63	0xbd664a71	-0.056223337
64	0x380ebe60	3.403274e-05
65	0xbd30dfd6	-0.043182217
66	0xbbf36398	-0.007427644
67	0xbdf06937	-0.11738818
68	0x3d947523	0.072489046
69	0x3d2ef85a	0.042717315
70	0xbd3a4bc6	-0.04548242
71	0xbe3e856a	-0.18605581
72	0xbe84e53f	-0.2595615
73	0xbd95896d	-0.073016025
74	0x3d7ac5d7	0.06122383
75	0x3d2bb75c	0.041922912
76	0xbe166ecf	-0.14690708
77	0xbd11b4e8	-0.035572916
78	0x3d4f9b52	0.050685234
79	0x3e12fb9a	0.14353791
80	0xbeb8f961	-0.3612776
81	0x3dbeb4d2	0.093118325
82	0x3e944b9f	0.28963944
83	0xbe082973	-0.13297062
84	0xbc950a5d	-0.018193418
85	0xbc550316	-0.013001224
86	0xbed60f99	-0.41808775
87	0xbe066c3a	-0.13127223
88	0xbd8eb75c	-0.06968567
89	0xbdf719b0	-0.120654464
90	0x3e287d0d	0.16453953
91	0x3e5ab455	0.21357854
92	0x3d8794c7	0.06620174
93	0x3e1889c6	0.14896306
94	0xbdf2cbe6	-0.11855297
95	0x3dd2402b	0.10266145
96	0xbd994fbd	-0.07485912
97	0x3d96d031	0.07363928
98	0x3e232146	0.15930662
99	0xbe264300	-0.16236496
100	0xbded5a44	-0.115894824
101	0xbd6998ef	-0.057030614
102	0x3ea291c3	0.31751832
103	0x3d801132	0.0625328
104	0xbd256aad	-0.040384937
105	0x3d597777	0.053092446
106	0x3d7ac8f4	0.0612268
107	0x3de70ff4	0.1128234
108	0x3d89c22a	0.06726487
109	0xbe6f6134	-0.23376924
110	0xbd7c4c4b	-0.061596196
111	0xbdc87c2d	-0.0978931
112	0x3deecb97	0.116599254
113	0xbe1ebb2b	-0.15501086
114	0xbde69bad	-0.112601615
115	0xbea5e29d	-0.32399455
116	0xbe351bef	-0.17686437
117	0xbe60fb93	-0.21970968
118	0x3e4b7f3d	0.19872756
119	0x3d8b4bae	0.06801544
120	0x3e3b1831	0.18270947
121	0x3d54d9cf	0.05196553
122	0x3d40ad5a	0.04704032
123	0xbd982e52	-0.0743071
124	0x3d924b4e	0.071432695
125	0xbe35f010	-0.17767358
126	0xbdab7417	-0.08371752
127	0x3d945611	0.07242978
128	0xbe85910d	-0.26087227
129	0x3e895ab2	0.26827008
130	0x3d837e3f	0.06420564
131	0xbe00d0d3	-0.1257966
132	0x3dbca16e	0.09210478
133	0x3e22ee03	0.15911107
134	0xbd03049f	-0.03198683
135	0x3e1775ab	0.1479098
136	0xbe1fa2a3	-0.15589385
137	0xbbc3a63f	-0.005970746
138	0xbe1fb36c	-0.15595788
139	0x3caf18b1	0.021374078
140	0xbdc58708	-0.09644896
141	0x3b83c1ad	0.0040208907
142	0x3d8182b8	0.06323761
143	0xbc92db20	-0.017926753
144	0xbd867067	-0.06564408
145	0xbe476305	-0.19471367
146	0x3dc91ea2	0.09820296
147	0x3e04d95f	0.12973545
148	0x3e38d8d7	0.18051468
149	0x3d7905db	0.0607966
150	0xbe32a8ad	-0.17447157
151	0x3db678b3	0.0890974
152	0x3e024f69	0.12725605
153	0xbe327967	-0.17429124
154	0xbdcd78e8	-0.10032827
155	0xbd901ef7	-0.07037156
156	0xbc3f0bf2	-0.011660563
157	0xbc1b12c6	-0.009464925
158	0x3e0c0779	0.13674726
159	0x3e5ee8f7	0.21768557
160	0x3d5bcd06	0.053662322
161	0xbd901281	-0.07034779
162	0x3cbad4bb	0.022806516
163	0x3e8ec903	0.27887735
164	0xbd07b1b5	-0.03312846
165	0x3e58daa9	0.21177162
166	0x3e396c6c	0.18107766
167	0xbdda2f9c	-0.10653612
168	0xbe049930	-0.12949061
169	0xbd98f3e8	-0.074683964
170	0xbd32538b	-0.043536704
171	0x3cfa6a82	0.030568365
172	0x3d942713	0.07234015
173	0x3cb1abec	0.021688424
174	0xbd9c0610	-0.07618344
175	0xbe50d12f	-0.20392297
176	0xbe23181e	-0.15927169
177	0xbe0689c0	-0.13138485
178	0xbd818701	-0.06324578
179	0x3d07d963	0.0331663
180	0x3de7a928	0.11311561
181	0xbcf4d80b	-0.029888174
182	0xbd120dd5	-0.035657723
183	0x3b56e4f8	0.0032790285
184	0x3dcb0d63	0.09914663
185	0x3c44ecb0	0.012019321
186	0x3e07e410	0.13270593
187	0x3d6c986a	0.05776254
188	0x3d608812	0.054817267
189	0x3e627e11	0.22118403
190	0x3b8b6ed0	0.0042551532
191	0xbe49f233	-0.19721298
192	0xbd8ec668	-0.06971437
193	0x3de8f781	0.113753326
194	0xbe16069b	-0.14650957
195	0x3c6ca1c5	0.014442866
196	0xbc8490c0	-0.016182303
197	0x3e22cf5c	0.15899414
198	0x3e37cfc9	0.17950357
199	0x3e69bc68	0.22825778
200	0x3d565d06	0.052334808
201	0xbe973854	-0.29535162
202	0x3eadaf79	0.33922938
203	0x3e3ed4b9	0.18635835
204	0xbe49de4e	-0.19713709
205	0xbd88165c	-0.0664489
206	0x3e827691	0.25481084
207	0xbdeede14	-0.11663452
208	0x3ca7c8a6	0.020481419
209	0x3ac3dc74	0.001494302
210	0xbe1601a7	-0.14649068
211	0x3e0babb9	0.13639726
212	0x3d72e1f1	0.059297506
213	0xbbe00f87	-0.0068377885
214	0x3c6a3636	0.014295151
215	0xbbd6befb	-0.0065535284
216	0x3d3fbc16	0.046810232
217	0xbe9f3fd6	-0.3110339
218	0x3e1c1235	0.1524132
219	0xbd1ccc8c	-0.03828101
220	0x3e6c6f5b	0.23089354
221	0xbdf0ca89	-0.117573805
222	0xbdeb7c70	-0.11498344
223	0x3de13e7e	0.109982476
224	0x3d578075	0.05261274
225	0xbcc479eb	-0.023983916
226	0xbbd9ddaa	-0.006648739
227	0x3e111f76	0.14172158
228	0xbe2c014f	-0.16797374
229	0x3e1cbb01	0.15305711
230	0xbd3d205e	-0.046173446
231	0xbe1f088c	-0.15530604
232	0xbdc1ad5b	-0.09456893
233	0x3de23e0e	0.11046992
234	0x3e0912e8	0.13386118
235	0xbd5c90c9	-0.053849015
236	0xbdf2958c	-0.1184493
237	0xbe103a20	-0.14084673
238	0x3da203ac	0.079108566
239	0xbdae9a72	-0.08525552
240	0xbe0ed0ac	-0.1394679
241	0x3cfb0a5d	0.03064459
242	0x3be619c1	0.007022113
243	0x3cfae737	0.03062783
244	0x3e10bc09	0.1413423
245	0x3e6a1271	0.22858597
246	0xbca90c85	-0.020635853
247	0xbdbf3e6a	-0.093380764
248	0x3df48113	0.119386815
249	0x3df2ede2	0.11861779
250	0xbe22e940	-0.1590929
251	0x3e76ad6b	0.24089591
252	0xbde34c83	-0.11098578
253	0xbda766a6	-0.081738755
254	0x3d8e6129	0.069521256
255	0xbe54f6ee	-0.20797321

transformer.layers.0.0.fn.fn.to_out.bias f4 [64]
0	0x3de5380a	0.11192329
1	0x3da8258b	0.08210286
2	0xbc610eb9	-0.01373642
3	0x3d9f696e	0.07783781
4	0xbd2dd08b	-0.04243521
5	0xbd177bc8	-0.03698328
6	0xbc6dfb7d	-0.0145252915
7	0xbdff0e30	-0.12453878
8	0x3cb3b9b8	0.021939144
9	0x3e04374c	0.12911719
10	0x3e459af4	0.19297391
11	0xbcb29928	-0.021801546
12	0xbe1e66c2	-0.15468886
13	0x3c343e42	0.011001172
14	0xbd82469c	-0.06361124
15	0xbe1a00dc	-0.1503939
16	0x3dd3ed4c	0.10347995
17	0xbd394633	-0.045232963
18	0xbc766c26	-0.015040433
19	0xbdf96c31	-0.12178839
20	0xbd695200	-0.056962967
21	0x3d82145c	0.063515395
22	0x3e3a9b9e	0.18223426
23	0xbc385054	-0.0112496205
24	0x3ddd7f9c	0.10815355
25	0x3dbce339	0.09223027
26	0xbd4ba931	-0.0497219
27	0x3d94e8f5	0.072709955
28	0xbd1835d9	-0.037160728
29	0xbd0accfc	-0.033886895
30	0x3dbf1e90	0.09332001
31	0x3d9acff9	0.07559199
32	0xbc85b8b5	-0.016323427
33	0x3e3c8902	0.1841164
34	0x3cbb1880	0.022838831
35	0xbd8acfa7	-0.06777888
36	0xbe15e1c7	-0.14636908
37	0x3d3ecf2b	0.04658429
38	0x3df1df7f	0.118102066
39	0x3c9fd7e1	0.019512119
40	0xbcd5b1da	-0.026085783
41	0xbc67345a	-0.014111603
42	0xbd42ac85	-0.04752781
43	0x3d4e496f	0.050363
44	0x3d203d4e	0.039120965
45	0xbd503aef	-0.050837453
46	0xbd1959fc	-0.03743933
47	0x3dade24e	0.0849043
48	0xbd5bd2b9	-0.053667758
49	0xbd800965	-0.06251792
50	0x3d1443dd	0.036197532
51	0x3da65c46	0.081230685
52	0xbdbe5b73	-0.09294786
53	0x3e511df1	0.20421578
54	0x3e2ceb2d	0.16886587
55	0xbd9421cb	-0.07233008
56	0xbe202685	-0.15639694
57	0xbd19968d	-0.037497092
58	0x3e4a3af2	0.19749048
59	0xbd9538ce	-0.07286225
60	0x3d8d8583	0.06910231
61	0xbcce5fb8	-0.025192127
62	0x3d5495fc	0.05190085
63	0x3da405dd	0.08008931

transformer.layers.0.1.fn.norm.weight f4 [64]
0	0x3f683d77	0.9071879
1	0x3f595354	0.84892774
2	0x3f62d5d9	0.88607556
3	0x3f3c98da	0.7367073
4	0x3f5e8fd9	0.86938244
5	0x3f2cd604	0.6751406
6	0x3f51948b	0.81867284
7	0x3f802f8e	1.0014513
8	0x3f42dbb3	0.76116484
9	0x3f6c726c	0.92362094
10	0x3f4b09ba	0.79311717
11	0x3f63b2b5	0.8894456
12	0x3f8e7bf2	1.1131575
13	0x3f5a3816	0.8524183
14	0x3f60b1f9	0.87771565
15	0x3f2c9558	0.6741538
16	0x3f495449	0.78644234
17	0x3f768213	0.9629223
18	0x3f478943	0.7794382
19	0x3f485e69	0.7826906
20	0x3f224486	0.6338581
21	0x3f329d9d	0.6977175
22	0x3f8df703	1.1091007
23	0x3f4c26b7	0.79746574
24	0x3f5253a6	0.8215889
25	0x3f38dcce	0.7221192
26	0x3f4e8106	0.80665624
27	0x3f411e39	0.7543674
28	0x3f4f2821	0.80920607
29	0x3f822103	1.0166324
30	0x3f6048a3	0.87610835
31	0x3f17d783	0.5931322
32	0x3f4c5531	0.7981749
33	0x3f49397b	0.78603333
34	0x3f3768ee	0.71644485
35	0x3f4cec6a	0.8004824
36	0x3f8e525d	1.1118885
37	0x3f3b4095	0.7314542
38	0x3f4ffdf2	0.81246865
39	0x3f816426	1.0108688
40	0x3f35a30d	0.7095192
41	0x3f67714a	0.9040724
42	0x3f5bbedb	0.858381
43	0x3f4194dc	0.75617766
44	0x3f657c29	0.8964258
45	0x3f72ca9c	0.9484041
46	0x3f581bb5	0.8441728
47	0x3f692df2	0.9108573
48	0x3f8bdd0e	1.0926836
49	0x3f5babea	0.85809195
50	0x3f7aacbb	0.97919816
51	0x3f73f692	0.9529811
52	0x3f6ff657	0.9373526
53	0x3f4a1830	0.7894316
54	0x3f87e25e	1.0615957
55	0x3f5c0226	0.8594078
56	0x3f72ab06	0.9479221
57	0x3f7af8f3	0.98036116
58	0x3f88e1a9	1.0693866
59	0x3f38c212	0.7217113
60	0x3f66d587	0.90169567
61	0x3f6c8927	0.9239678
62	0x3f5f6a5d	0.8727167
63	0x3f70ea5b	0.941076

transformer.layers.0.1.fn.norm.bias f4 [64]
0	0xbdc5d791	-0.09660257
1	0xbd8befd7	-0.06832855
2	0x3d2a111d	0.041520227
3	0xbe243815	-0.16037019
4	0x3e37296d	0.17886896
5	0xbe221f3f	-0.15832232
6	0xbd8d66f6	-0.06904404
7	0xbe74fbfc	-0.2392425
8	0xbe28c38e	-0.16480848
9	0x3e03ae3f	0.12859438
10	0x3d9860ad	0.074403144
11	0xbe214e71	-0.1575258
12	0xbec1a290	-0.37819338
13	0x3e6e5880	0.23275948
14	0xbe077aa4	-0.13230377
15	0xbe3ade4a	-0.18248859
16	0x3e654169	0.22388233
17	0xbe028a2b	-0.1274802
18	0x3e006cf2	0.1254156
19	0xbe486b51	-0.19572188
20	0xbd8d4894	-0.06898609
21	0xbcaf3967	-0.021389676
22	0x3e6192cf	0.2202866
23	0xbd688a5f	-0.056772586
24	0x3e1ee57b	0.15517227
25	0x3e03acc1	0.12858869
26	0x3dcbb99f	0.09947514
27	0x3e971a78	0.29512382
28	0x3d7cc3d5	0.061710197
29	0x3e0a70f7	0.13519655
30	0x3daeec93	0.08541217
31	0x3be87cfc	0.0070949774
32	0xbe8aeb9f	-0.2713289
33	0x3e2dfe0d	0.16991444
34	0xbdcd3b15	-0.10021035
35	0x3d971ab2	0.073781386
36	0xbe134ea6	-0.14385471
37	0x3dca71e8	0.09885007
38	0x3e364d21	0.1780286
39	0x3e89def1	0.26927903
40	0xbc3a6b59	-0.011378133
41	0xbe1a7fad	-0.15087767
42	0xbe4c9e4e	-0.19982263
43	0x3b118157	0.0022202337
44	0xbe1aa97a	-0.15103713
45	0x3da8131d	0.082067706
46	0xbeb485e8	-0.35258412
47	0x3e6eac89	0.23308004
48	0xbe6b84a3	-0.22999816
49	0xbeb327e8	-0.34991384
50	0xbe5bcb62	-0.21464303
51	0xbc59b8c4	-0.01328868
52	0xbdd205f5	-0.102550425
53	0x3da0836c	0.07837567
54	0x3d5f4c9f	0.05451643
55	0xbce124a6	-0.027483296
56	0xbdcf7fdb	-0.10131808
57	0xbe8b89e7	-0.2725365
58	0x3edf1cae	0.43576568
59	0xbe334d42	-0.1750994
60	0x3e7573e2	0.23969987
61	0x3d10ae7b	0.035322648
62	0xbd71086d	-0.058845926
63	0x3e8fc122	0.28077036

transformer.layers.0.1.fn.fn.net.0.weight f4 [128, 64]
0	0x3eb79288	0.35853982
1	0xbe85d495	-0.2613875
2	0xbcaf8020	-0.0214234
3	0x3d92a690	0.071606755
4	0xbd914341	-0.07092906
5	0xbd05ea7e	-0.032694332
6	0x3d11a8a1	0.035561208
7	0xbe1d0215	-0.15332825
8	0xbe261bf2	-0.16221598
9	0xbe3734ff	-0.1789131
10	0xbe25bd33	-0.16185455
11	0x3d91df99	0.07122726
12	0x3b81ef86	0.003965321
13	0xbe301940	-0.17197132
14	0xbbe46127	-0.0069695893
15	0x3d9ab7ec	0.075546116
16	0xbd97020d	-0.07373438
17	0x3cef7461	0.029230298
18	0xbda08052	-0.07836975
19	0xbb22873c	-0.0024799844
20	0xbe4019d2	-0.1875985
21	0xbdc2251a	-0.09479733
22	0xbdbf9795	-0.09355084
23	0x3dafc381	0.08582211
24	0xbe0cd6e6	-0.13753852
25	0x3d20aba3	0.039226186
26	0x3d1e0d6d	0.038587023
27	0xbd919417	-0.07108324
28	0xbe529e96	-0.20568308
29	0xbd7ae8fe	-0.061257355
30	0x3da0e2e3	0.07855775
31	0x3e6e4439	0.23268212
32	0x3d36d671	0.0446381
33	0x3e57fafb	0.21091835
34	0xbd76c2ce	-0.060244374
35	0xbd0ed29a	-0.034868814
36	0x3decdf4e	0.115660295
37	0x3b87d381	0.0041450863
38	0xbea56e14	-0.32310545
39	0xbe3cbed3	-0.18432169
40	0x3e33122e	0.17487404
41	0xbd011dae	-0.031522445
42	0x3e796978	0.2435664
43	0x3cb5672c	0.022143923
44	0x3e6e492c	0.232701
45	0x3e7df48b	0.24800317
46	0x3e037a27	0.12839566
47	0xbd5c8309	-0.053835902
48	0x3e842ac9	0.25813892
49	0x3e5fc2ef	0.21851705
50	0x3e686174	0.22693425
51	0xbd2d0833	-0.042244148
52	0x3e1b2cf7	0.15153871
53	0xbd9452bd	-0.072423436
54	0x3e0deec9	0.1386062
55	0xbd87843e	-0.0661702
56	0x3d65ffec	0.05615227
57	0xbb249ba9	-0.0025117195
58	0xbdd5bf4c	-0.104368776
59	0xbd4737a0	-0.048637033
60	0xbddf3489	-0.10898692
61	0x3b0747c6	0.0020642146
62	0xbdfe93a0	-0.12430501
63	0x3ab4d4e6	0.0013796359
64	0xbdd086a2	-0.10181929
65	0xbc8ee0cc	-0.017441176
66	0xbd7a8b7f	-0.06116819
67	0xbd9b9a96	-0.07597844
68	0x3c939371	0.018014641
69	0x3e1caecd	0.15301056
70	0x3db63488	0.08896738
71	0x3dbd4aca	0.092427805
72	0xbcb9b026	-0.022667002
73	0xbcfaa18a	-0.030594606
74	0xbe296f26	-0.16546306
75	0xbc11ecfd	-0.0089066
76	0x3e67ecb5	0.2264889
77	0xbc6e1864	-0.014532182
78	0xbdb0e720	-0.086378336
79	0x3c8c444c	0.01712241
80	0x3dc9d8af	0.09855782
81	0x3b916c0f	0.0044379304
82	0xbdebd554	-0.115152985
83	0x3dd2b646	0.10288672
84	0x3d11773b	0.035514098
85	0x3dc6d712	0.0970899
86	0xbe612054	-0.21984988
87	0x3b6d0c0d	0.0036170513
88	0xbe0e5922	-0.13901189
89	0x3d43bc5a	0.047787048
90	0xbc83bb6d	-0.016080583
91	0xbdd25c81	-0.1027155
92	0x3e79dcc7	0.24400626
93	0xbe481178	-0.19537914
94	0xbe60519f	-0.21906136
95	0x3cac8a80	0.021062136
96	0x3e035fed	0.12829562
97	0xbe4f48f9	-0.2024268
98	0x3dad8f73	0.084746264
99	0xbe4f0dfd	-0.2022018
100	0x3d300d01	0.04298115
101	0x3d08af33	0.033370208
102	0x3d0b0733	0.033942413
103	0x3e8276af	0.25481173
104	0x3e9b9698	0.3038833
105	0x3da272f5	0.079320826
106	0xbd688811	-0.056770388
107	0x3e0f1ed9	0.13976611
108	0xbdf89f12	-0.12139715
109	0xbe2b1444	-0.1670695
110	0x3d9efa96	0.07762639
111	0x3e24c74b	0.16091649
112	0xbc5957f7	-0.013265601
113	0xbd55f0a9	-0.052231465
114	0x3eaf4eaf	0.34239718
115	0x3e34268b	0.17592828
116	0xbcecef7d	-0.02892279
117	0xbd11c569	-0.035588656
118	0xbe89780b	-0.26849398
119	0x3d93cd24	0.07216862
120	0x3d42540b	0.04744343
121	0xbd158864	-0.036507025
122	0xbe489c8b	-0.19590966
123	0x3da3af64	0.079924375
124	0xbe5cc5de	-0.21559855
125	0xbdd8db8b	-0.105887495
126	0x3d44bf9a	0.048034288
127	0xbe4b7bf8	-0.19871509
128	0x39a88f88	0.00032150396
129	0xbeb7537f	-0.3580589
130	0xbd9e7e41	-0.07738925
131	0x3bbd211b	0.0057717687
132	0x3d66d7cc	0.056358144
133	0x3e68585a	0.22689953
134	0xbdf69f15	-0.12042061
135	0xbc19b3f5	-0.009381284
136	0xbd77a1e9	-0.060457144
137	0xbdc14366	-0.09436683
138	0xbe91623a	-0.28395253
139	0xbc7e3b3e	-0.015517054
140	0xbda58732	-0.08082427
141	0xbd230d10	-0.03980738
142	0xbb130426	-0.0022432893
143	0xbd282576	-0.04105135
144	0xbd2b5929	-0.041833077
145	0x3e019411	0.12654139
146	0xbd9ddd83	-0.07708266
147	0x3e87d8b3	0.26532516
148	0x3e0a093d	0.13480087
149	0xbd411d9a	-0.04714737
150	0xbd9215e7	-0.07133084
151	0x3d40a435	0.0470316
152	0xbe0b9411	-0.13630702
153	0xbd500f73	-0.050795984
154	0xbc4e0353	-0.012574035
155	0xbc8efd9f	-0.01745492
156	0x3e00ce40	0.12578678
157	0x3c7cc62f	0.01542811
158	0xbd2d5db1	-0.04232568
159	0xbc4a2950	-0.012338951
160	0x3e059ab0	0.1304729
161	0xbdd3f980	-0.10350323
162	0x3dd63a33	0.10460319
163	0xbb5fa542	-0.00341256
164	0x3eccd494	0.40005934
165	0xbdc83602	-0.09775926
166	0xbafc8419	-0.0019265442
167	0xbe0e10d4	-0.13873607
168	0x3c870691	0.016482623
169	0xbdf5e2a6	-0.120061204
170	0xbe0b1398	-0.13581693
171	0xbcfdffba	-0.031005729
172	0x3e7029d7	0.2345346
173	0x3e3032bd	0.17206855
174	0x3d4a7b2c	0.049433872
175	0xbc23e944	-0.010004345
176	0x3dcb7ab7	0.099355154
177	0x3e1670ec	0.14691514
178	0xbacf0e9a	-0.0015797198
179	0xbc15c90e	-0.009142173
180	0xbdca7802	-0.09886171
181	0xbc49f174	-0.012325633
182	0xbe798f56	-0.24371085
183	0x3e314270	0.173105
184	0x3e09a4f2	0.13441828
185	0x3e288233	0.16455917
186	0xbdf77f2b	-0.12084802
187	0x3e818e2f	0.2530379
188	0xbdf70364	-0.120611936
189	0xbc846a89	-0.016164081
190	0xbc684271	-0.014175997
191	0x3ca9c711	0.020724805
192	0x3e1e897d	0.15482135
193	0xbdb076f6	-0.0861644
194	0xbe9efd72	-0.31052738
195	0x3e43ccaa	0.19121042
196	0xbdb3dd91	-0.08782495
197	0x3ef331f5	0.47499052
198	0x3edc55c5	0.43034187
199	0xbd292fee	-0.041305475
200	0x3cd3eb3c	0.025869004
201	0xbeb80b2d	-0.35946026
202	0x3d693a29	0.05694023
203	0x3dea020b	0.11426171
204	0x3bfb7350	0.0076736584
205	0xbe9ce947	-0.30646726
206	0x3e7666fd	0.24062724
207	0x3e65575c	0.22396606
208	0xbe39077b	-0.1806926
209	0xbe0d3847	-0.13791
210	0x3cae33c7	0.021264924
211	0x3e3e7644	0.18599802
212	0x3e9be5fd	0.30448905
213	0x3c28979e	0.010290055
214	0x3d9c5eae	0.07635246
215	0x3db02780	0.08601284
216	0xbea97494	-0.33096755
217	0xbe60880b	-0.21926896
218	0xbe1b5b02	-0.15171435
219	0xbe438a2e	-0.1909568
220	0xbdafeda5	-0.08590249
221	0xbe206a9d	-0.1566567
222	0x3c3ef3ca	0.0116548035
223	0x3d39376f	0.04521888
224	0x3e633b75	0.2219065
225	0xbda047f9	-0.07826228
226	0x3d869a3e	0.06572388
227	0x3c9d0e18	0.01917176
228	0x3ccaf5c5	0.024775395
229	0x3e071873	0.1319292
230	0x3e435dcc	0.1907875
231	0x3e0e5e98	0.13903272
232	0x3e152605	0.14565285
233	0xbda04758	-0.07826108
234	0x3e13aa38	0.14420402
235	0x3ace7f61	0.0015754515
236	0x3e6fa30a	0.23402038
237	0x3db6e61e	0.0893061
238	0x3e028c54	0.12748843
239	0x3e23860f	0.15969108
240	0xbd2966bc	-0.04135774
241	0xbd811a9e	-0.06303905
242	0xbe004730	-0.12527156
243	0x3e83809d	0.25684062
244	0xbd327cce	-0.043576054
245	0x3e3f3f88	0.18676579
246	0x3e336d5a	0.17522183
247	0xbe8bfe59	-0.2734249
248	0x3c9de12c	0.01927241
249	0x3e88c17d	0.2671012
250	0xbe44c3ff	-0.19215392
251	0x3cf8b5c6	0.030360114
252	0xbe373714	-0.17892104
253	0xbef1d991	-0.47236302
254	0xbe58fce9	-0.21190228
255	0xbd13bcf5	-0.036068875

transformer.layers.0.1.fn.fn.net.0.bias f4 [128]
0	0xbe984617	-0.29740974
1	0xbd89c6e4	-0.067273885
2	0xbdd1078c	-0.102065176
3	0xbe94b167	-0.29041597
4	0xbde2b6a8	-0.11069995
5	0xbe16218f	-0.14661239
6	0xbe562897	-0.20913921
7	0xbe1d100d	-0.15338154
8	0xbd98b71f	-0.074568026
9	0xbe2d67a3	-0.16934066
10	0xbb2cd1aa	-0.0026370087
11	0xbd0be22e	-0.03415125
12	0xbe277e6c	-0.1635682
13	0xbe8baaa0	-0.27278614
14	0xbe887866	-0.26654357
15	0xbe5d05f5	-0.21584304
16	0xbe1a8895	-0.15091164
17	0xbe41e1a3	-0.1893373
18	0xbd3fd1d0	-0.046830952
19	0xbe72a694	-0.23696357
20	0xbe017f46	-0.12646207
21	0xbe02a428	-0.12757933
22	0xbe0717b3	-0.13192634
23	0xbd212201	-0.03933907
24	0xbe00bf68	-0.12573016
25	0xbe0dd5ac	-0.1385104
26	0xbdc965e5	-0.09833888
27	0xbe27d26b	-0.16388862
28	0xbe96ba37	-0.29438946
29	0xbb8c8ec1	-0.0042894785
30	0xbdaded2d	-0.08492503
31	0xbe4ef0ed	-0.20209093
32	0xbe3debca	-0.18546978
33	0xbe901a63	-0.2814513
34	0xbe678c0b	-0.22612016
35	0xbd805cf6	-0.06267731
36	0xbc77e925	-0.01513127
37	0xbd1e59b5	-0.03865977
38	0xbe235844	-0.1595164
39	0xbe0c0da1	-0.13677074
40	0xbca5fc38	-0.020261869
41	0xbda394dd	-0.07987378
42	0xbd07011a	-0.032960035
43	0xbcef76af	-0.029231397
44	0xbd8ba323	-0.06818225
45	0xbe88c4ea	-0.26712734
46	0xbe678af1	-0.22611596
47	0xbe69ed83	-0.2284451
48	0xbe802c5a	-0.25033838
49	0xbe2e45ff	-0.17018889
50	0xbe9be1b7	-0.30445644
51	0xbe4bba82	-0.19895366
52	0xbe1cef9a	-0.15325776
53	0xbd4d1266	-0.050066374
54	0xbdb9eb93	-0.09078135
55	0xbe68d7d4	-0.22738582
56	0xbb08e2b4	-0.0020887079
57	0xbe2de50d	-0.16981907
58	0xbeb05219	-0.34437636
59	0xbd88d355	-0.066809334
60	0xbe8b92e5	-0.2726051
61	0xbe808941	-0.25104716
62	0xbe1e2c5c	-0.1544661
63	0xbe55fa28	-0.20896208
64	0xbe53d9cd	-0.20688553
65	0xbe1bc724	-0.15212685
66	0xbd3dc6e7	-0.046332266
67	0xbc2682a0	-0.010162979
68	0xbe4e4c63	-0.20146327
69	0xbd830460	-0.06397319
70	0xbe58c0cf	-0.211673
71	0xbe1084e8	-0.141132
72	0xbe449a6f	-0.19199537
73	0xbe60b913	-0.219456
74	0xbd5dcdcd	-0.054151345
75	0xbd69dc5e	-0.057094924
76	0xbe8f9df5	-0.280502
77	0xbe3ea7ee	-0.18618748
78	0xbe114956	-0.14188132
79	0xbddedffe	-0.10882567
80	0xbe48a51e	-0.19594237
81	0xbe08e064	-0.13366848
82	0xbe239ff1	-0.15978982
83	0xbe57c39d	-0.21070714
84	0xbe6c16f9	-0.23055638
85	0xbd657316	-0.056017958
86	0xbe086c75	-0.13322623
87	0xbe5b7040	-0.21429539
88	0xbe19f0ce	-0.15033266
89	0xbe536a51	-0.20646025
90	0xbe51f426	-0.20503291
91	0xbe582f72	-0.21111849
92	0xbc858642	-0.01629937
93	0xbe6b5337	-0.22980963
94	0xbd96fe89	-0.073727675
95	0x3c807940	0.015682817
96	0xbd8df95f	-0.069323294
97	0x3c67c3a4	0.014145765
98	0xbd609658	-0.05483088
99	0xbe44693f	-0.19180773
100	0xbe3d8d81	-0.1851101
101	0x3c67311c	0.01411083
102	0xbe3ae599	-0.18251647
103	0xbe161fd5	-0.1466058
104	0xbe94e741	-0.29082683
105	0xbd99c683	-0.07508566
106	0xbdb93cfd	-0.09044836
107	0xbda2d95b	-0.079516135
108	0xbe0ba4d0	-0.1363709
109	0xbe43d158	-0.19122827
110	0xbe752059	-0.23938121
111	0xbdaac23a	-0.08337827
112	0xbd4e9a56	-0.050440155
113	0xbd20c720	-0.0392524
114	0xbe051acf	-0.12998508
115	0xbc88999d	-0.016674811
116	0xbdb110b9	-0.08645768
117	0xbe6a0be3	-0.22856097
118	0xbe1f370f	-0.15548347
119	0xbe28dc32	-0.16490248
120	0xbdc38348	-0.09546524
121	0xbe268b55	-0.16264088
122	0xbdb99f11	-0.09063543
123	0xbe91db56	-0.28487653
124	0xbe186cc9	-0.14885248
125	0xbcbe16ea	-0.023204286
126	0xbd98e14f	-0.07464849
127	0xbe7daa21	-0.2477193
